model_save/actor.pth (torch, 21300 bytes, 5 tensors)

weight f4 [64, 3]
000000 5c 28 1f be 2f ce 88 be 25 d1 56 bf 76 65 af 3e
       -0.1554274 -0.26719806 -0.8391288 0.34257096
000010 24 67 a5 bf a0 35 c1 be 49 88 19 bf cb 83 67 be
       -1.2922101 -0.37736225 -0.5997358 -0.22608869
000020 fa d2 13 3d bb 20 24 bf c5 02 2f 3f 1f f7 06 be
       0.036089875 -0.6411244 0.683636 -0.13180207
000030 f7 f1 b5 3d 12 d8 de 3d ad 7e 59 3f 15 03 d3 be
       0.08884042 0.10881056 0.84958917 -0.4121329
000040 69 2c db 3f 3b 1f 49 3e 92 79 7f be 77 a7 01 3f
       1.7122928 0.1964082 -0.24948719 0.50646156
000050 e8 83 fb be d2 1b 65 be 5b 3f 52 bf 45 83 0a bd
       -0.49124074 -0.22373894 -0.8212792 -0.033816595
000060 96 2d 8e be cb cc e9 bf 8c 87 09 bf 4e 9c a4 be
       -0.27769154 -1.8265623 -0.53722453 -0.321505
000070 ee b0 30 bf 23 1d 0b 3e 4a d4 ca 3e 5b 7c 5e 3f
       -0.69019973 0.13585334 0.3961509 0.869085
000080 1a 7e b2 3e 6f 76 16 3f d7 1f 50 3f 80 cd 8a be
       0.34861833 0.58774465 0.81298584 -0.2710991
000090 66 2c 07 3e c5 31 77 3e 54 97 2f bf e4 8b c7 be
       0.1320053 0.2414008 -0.68590283 -0.38973916
0000a0 da 3d 6a be df 9a 32 bf 5b fd 10 3f 46 f8 1c 3f
       -0.22875157 -0.69767565 0.5663659 0.61316335
0000b0 9e d0 02 bf 29 6f 0b be 86 4b ae be f9 04 35 bf
       -0.51099575 -0.13616623 -0.34041995 -0.7071071
0000c0 e1 20 42 3f 85 13 2c bf 6a 45 e4 be 58 9f a5 3e
       0.7583142 -0.67217284 -0.4458421 0.32348132
0000d0 1c 33 24 be d4 3b c8 3e 31 9b 78 3f b8 d4 37 bf
       -0.16035122 0.39108145 0.97111803 -0.7180896
0000e0 25 f6 76 3e d3 fd ac be 0c 9e 2b bf dd 1c 45 bc
       0.24117334 -0.33787403 -0.67038035 -0.012030807
0000f0 f6 c4 ba be 40 56 cc 3f cf b9 bc 3e 49 5f 70 bf
       -0.36478394 1.5963821 0.3686051 -0.93895394
000100 a2 4c 1b 3f 32 39 a5 3e 99 5e b8 bf 0f 79 8d bd
       0.6066381 0.322702 -1.4403869 -0.06907856
000110 95 07 46 3d 42 a3 da be 6f f0 eb 3f a1 b3 20 3e
       0.048347075 -0.4270268 1.843275 0.15693523
000120 f4 33 b0 be 04 81 e4 3f b4 55 b3 3e 65 df 8c be
       -0.34414637 1.7851872 0.35026324 -0.27514187
000130 50 8f 70 3f 2f 21 a3 3d 34 13 3b bf 64 0e 10 bf
       0.9396868 0.07965314 -0.73076177 -0.5627196
000140 8f 44 91 bd 0f 04 d3 3e 8e 87 40 3e 34 d7 fa 3e
       -0.07093155 0.41214034 0.1880171 0.48992312
000150 86 f0 23 be c7 c8 87 bf 92 4f 22 be b9 98 0d bf
       -0.16009721 -1.0608147 -0.15850666 -0.5531116
000160 5d 22 91 3e bb 95 43 be a6 10 7c be 47 e3 e0 be
       0.2834653 -0.19100086 -0.24615726 -0.439234
000170 ea 21 3b 3e 67 5a d9 bd ed 69 ab 3f a4 d5 76 3e
       0.18274656 -0.10612946 1.3391701 0.24104935
000180 1d cf 02 3f 61 49 3a 3f 6a 84 9f 3e f4 ee 12 3e
       0.5109728 0.7276822 0.3115571 0.14348966
000190 73 9f 22 3f fb 3e 2c bf a5 d8 92 3f 95 08 da 3e
       0.6352455 -0.672836 1.1472365 0.42584673
0001a0 26 52 39 be ad 30 97 3e 48 33 aa 3f a3 02 14 bf
       -0.18097743 0.29529324 1.32969 -0.57816523
0001b0 d6 a4 09 bf 59 ab bb 3e 6d 8c 94 be e4 b6 9c bc
       -0.53767145 0.36654165 -0.29013386 -0.019130178
0001c0 22 9c 8f bf 0c fc 2f be e5 22 f3 3e 64 48 b2 3e
       -1.1219523 -0.17185992 0.4748756 0.34820855
0001d0 77 5b 1f 3f bb e5 b8 be 44 86 b3 bf 1b 0c a5 be
       0.6224894 -0.3611277 -1.402535 -0.32235798
0001e0 67 dd 97 be 28 1e ba 3f 88 29 ae 3e 2e 61 da 3e
       -0.29661104 1.4540453 0.3401606 0.42652267
0001f0 ce 3d db 3e 3a 81 05 3f fb ae ad be 02 ad f9 3f
       0.4282059 0.5215031 -0.33922562 1.9505923
000200 78 18 55 3e 8f 10 42 3c 67 98 ac bf 90 e2 50 be
       0.20810115 0.011844768 -1.348401 -0.20398927
000210 01 e9 cf 3e 7b 32 81 3f f7 be 98 3c f2 3b 1f 3f
       0.40607455 1.009353 0.018645747 0.62200844
000220 0b 65 33 3f b1 3e 93 3e 0b a3 19 3f 18 88 81 3f
       0.70076054 0.28758767 0.6001441 1.0119658
000230 cb 28 ca 3d 04 e3 52 bf 90 e6 33 3e 79 b6 ba be
       0.09871062 -0.8237765 0.17568421 -0.3646734
000240 02 fd 34 bf a0 f7 2e bf fd 31 1a bf 18 ab 53 bf
       -0.7069856 -0.68346596 -0.60232526 -0.82682943
000250 1c aa 73 3d 68 d9 2f 3e 75 05 3b 3d bf 53 a3 be
       0.0594884 0.17172778 0.0456595 -0.3189983
000260 45 68 d0 be 65 3d 2e be 88 e6 ca bf 0b 47 0f bd
       -0.4070455 -0.17015608 -1.5851603 -0.03497986
000270 86 59 7c 3e 34 92 d2 bf a4 cf 8a be 8a 58 00 bf
       0.24643525 -1.6450868 -0.27111542 -0.501351
000280 98 33 26 bf 08 0e 0a 3f 16 84 8e bf 2e 01 03 be
       -0.64922476 0.5392766 -1.113406 -0.12793419
000290 40 52 84 bb 31 21 14 3f 34 84 93 3e 31 da 9d be
       -0.0040381253 0.57863146 0.288118 -0.3083053
0002a0 fe 38 a1 bf f1 59 50 bf e4 4f a6 3d ac fe a8 3e
       -1.2595518 -0.8138724 0.08120707 0.330068
0002b0 c5 04 fc bf a1 be 22 be da c9 ef 3e 62 13 2b 3e
       -1.9688956 -0.15893032 0.46833688 0.16706613
0002c0 16 42 bc be 82 d5 15 3f 1c 27 63 3e 99 40 5b 3d
       -0.3676917 0.5852891 0.22182888 0.053528402
0002d0 bf e8 e6 be b8 41 a6 3e b0 9c 1b bf cf 76 9a bd
       -0.45099446 0.32472014 -0.6078596 -0.07542192
0002e0 70 cf 25 3f ed 4c 6b ba 62 5f 71 be 7f a6 78 bf
       0.6476965 -0.00089760014 -0.23571542 -0.9712905
0002f0 dc ca 17 bf 4d 6c e2 3e bf c7 14 bf 4f 3f 29 3f
       -0.59293914 0.44223252 -0.5811729 0.66112226

bias f4 [64]
000000 5e db 1c 3c 07 29 73 be 54 05 d1 bd 5a f5 e3 3e
       0.009573786 -0.2374612 -0.102060944 0.44523126
000010 53 cc 83 3d ae 0f 9e 3e d1 46 7b 3e 6e 45 2e bf
       0.06435456 0.30871338 0.24538733 -0.6807469
000020 b3 9d cf 3e 46 45 fd 3e 1e de c0 be 2c 1f 12 bf
       0.40550002 0.49466914 -0.37669462 -0.57078815
000030 56 f2 0e be 8f d7 dc 3c 3a 0e 03 be 75 d4 7a 3e
       -0.13959631 0.026958255 -0.12798396 0.24495108
000040 28 95 cc 3e 2e 5c 83 be ac 4f d1 be 6c 7d ab 3e
       0.39957547 -0.25656265 -0.40881097 0.33494127
000050 cd 5c 25 be 9f a1 3c bf 5f d5 2b be 1c 6f a8 3d
       -0.16148682 -0.73684114 -0.16780613 0.082243174
000060 88 83 6b be 83 e6 4e 3e cf db 2e 3f 65 9d 4c be
       -0.22999394 0.2020512 0.6830415 -0.19981916
000070 25 42 ef 3d a4 b2 20 3d 6e 1f a4 3e d2 15 c4 be
       0.11682538 0.039232865 0.3205523 -0.38297898
000080 04 65 21 bf ff 99 3c be 8b 23 32 be 63 cb 53 be
       -0.6304476 -0.1841812 -0.17396371 -0.20683055
000090 bc e0 9f 3d 69 13 5f 3e 78 26 83 be 23 d9 ac 3e
       0.078065366 0.21784748 -0.25615287 0.33759412
0000a0 27 31 41 be b8 65 1c 3e a3 3f ba 3e e2 c9 81 3e
       -0.18866406 0.15273178 0.36376676 0.25349337
0000b0 0f 66 57 3e 1f 4c 86 3e b2 24 82 3e f2 21 db 3e
       0.21035026 0.2622995 0.2541862 0.42799336
0000c0 30 5a 17 3f b6 57 2a bf e3 9b 61 3e 83 0d 43 3e
       0.5912199 -0.66540086 0.22032122 0.19048123
0000d0 60 35 9c be 8d 00 27 be 1b 6f 82 3d 02 7f cc bd
       -0.30509472 -0.16308804 0.06368848 -0.09985162
0000e0 b0 fb a1 be aa fd c6 be e6 16 19 3f 09 7a fe bc
       -0.31637335 -0.38865405 0.59800565 -0.03106405
0000f0 94 ec 0e 3f a2 bc 28 bf ac 06 35 3e 03 43 92 bc
       0.5582974 -0.6591283 0.17678326 -0.01785422

weight f4 [64, 64]
000000 56 33 c9 3d 25 52 4c 3e db 4e 8b 3e 2c a2 7b be
       0.09824245 0.1995321 0.272086 -0.24573582
000010 6c 88 5a bf c0 45 95 bf 88 a8 8e bd 4b ab 13 3f
       -0.85364413 -1.1661911 -0.069657385 0.5768325
000020 d6 46 cc bb 48 d9 85 3d 7b 5e a4 bf 12 7a 01 3f
       -0.0062340302 0.06535584 -1.2841333 0.5057689
000030 0a 47 ed 3d e3 4e 3c bc b6 f0 1a 3e 4f e8 f0 3d
       0.11585815 -0.011493417 0.15130886 0.11763059
000040 75 66 bc 3e 1f 1d 92 bf 8a 02 5b bd 49 2d b9 3d
       0.3679692 -1.1415137 -0.05346922 0.090418406
000050 8a b5 54 bf 34 aa 19 3f da 71 a2 be 0a 8e 20 bf
       -0.83089507 0.60025334 -0.31727487 -0.62716734
000060 b5 63 14 bf 73 f2 97 be 91 14 45 be 3e 18 c0 be
       -0.5796464 -0.29677162 -0.19246127 -0.37518495
000070 a9 11 9a bd 21 0f 8a bd a7 c1 97 3e 1a ca b7 be
       -0.075229 -0.06741167 0.29639933 -0.3589638
000080 7d 58 19 bf 40 a3 9a 3e 6e f5 a0 3e c3 42 9b 3e
       -0.5990065 0.30202675 0.31437248 0.30324373
000090 e9 93 15 be 87 b4 38 3e fa 1f a3 bf 67 e5 1e bd
       -0.14607204 0.18037616 -1.2744133 -0.038792994
0000a0 5a df 67 bf d7 e7 1c bf 4b e6 d7 bf 0e 9d 19 3e
       -0.9057518 -0.6129126 -1.6867155 0.15001318
0000b0 04 b6 50 be f9 f3 f3 be 0e 62 03 bf 9c f4 0a bd
       -0.20381933 -0.47647074 -0.51321495 -0.033924684
0000c0 24 56 0e 3e 60 52 25 3f cc 8b 7c 3d 3c 2a c8 3d
       0.13900048 0.6457882 0.06165676 0.097736806
0000d0 e0 5a 88 3f b5 72 80 3e 1e 61 f2 3e bb 00 5d 3e
       1.0652733 0.25087515 0.4733972 0.2158231
0000e0 fa f0 92 3e 83 b1 04 3f e8 94 8f 3d 8f e1 b5 3e
       0.28699476 0.5183336 0.070108235 0.3552365
0000f0 7d a6 60 bd f6 28 a5 3d 9a ef 16 bb 49 39 50 be
       -0.054846276 0.08064453 -0.0023030997 -0.20334353
000100 ec bf 84 bd 04 24 0f 3d 63 0e e2 bc 42 7a b9 3c
       -0.06481919 0.034946457 -0.02759475 0.022641305
000110 d9 00 d6 bc c5 5b a4 bc 3f 28 23 3d f8 2d d3 bc
       -0.026123451 -0.02006329 0.039833304 -0.025778756
000120 70 16 1b be 33 af 8a 3d d2 50 bd bd 57 50 51 bd
       -0.15145278 0.06771698 -0.09243931 -0.05110201
000130 76 b2 2e 3d 43 96 e6 bb 08 8f c3 bd b6 56 6b 3d
       0.042650662 -0.0070369556 -0.095487654 0.05745574
000140 d3 a7 0c be 8c 01 95 bd eb 91 12 bc 7a 9a 28 3d
       -0.13735895 -0.07275686 -0.008945922 0.041162945
000150 1a c6 84 bd 9c 1a f7 bd b4 ae eb bd 5a 16 db bd
       -0.064830974 -0.12065622 -0.11507931 -0.106976226
000160 72 5a 01 bd e7 58 69 3c 75 6b b1 3c d2 74 36 3d
       -0.031580396 0.014242387 0.021657685 0.044545002
000170 4a b8 62 bd 98 61 ab bc b7 d6 c0 3d cf 5a fa bd
       -0.055351533 -0.02092056 0.094159536 -0.122243516
000180 c0 c8 63 3c 28 94 de bd 1f ad 41 3d b1 10 66 bd
       0.013902843 -0.10868102 0.04728424 -0.056168262
000190 a1 43 f7 bd 6e 9c 3d bc b0 f9 e4 bd f7 e4 a0 bd
       -0.12073446 -0.01157294 -0.111804366 -0.078561716
0001a0 d6 87 af bd d1 30 c5 3d 37 ab 78 bd c3 63 6d 3d
       -0.085708305 0.096284516 -0.06071016 0.05795647
0001b0 25 f2 00 be 98 47 94 bd 58 97 9c bd c7 62 1a bc
       -0.12592371 -0.07240218 -0.07646054 -0.009422964
0001c0 b7 1d c4 3a b1 4f 20 3c 3f 7c 23 bd 61 96 14 be
       0.0014962469 0.009784625 -0.039913412 -0.1451049
0001d0 b7 a3 ee bc e2 7c 6a 3d 20 0e 5e bd 43 6e 9a 3c
       -0.0291308 0.057248004 -0.05421269 0.018851405
0001e0 2a d3 ba 3d 97 7f ab 3c 45 0e 9e 3c 40 cd 35 bd
       0.091223076 0.020934863 0.019293914 -0.044385195
0001f0 11 4c 7a 3d 92 95 28 3d 4a 6e 12 be 74 e7 dc bd
       0.0611077 0.041158266 -0.14299884 -0.10786334
000200 c5 de 3f 3c d2 5e bd bd f0 8b 96 3c b4 5a c6 bd
       0.011710827 -0.09246601 0.018377274 -0.09685269
000210 23 0f fc bc ff 2c 7e bd e3 09 9a bd 29 3e cc 3c
       -0.030768936 -0.06205463 -0.07521417 0.024931984
000220 5b 45 15 be 0e a9 f7 ba 6d 2a 5f be ba 54 6a 3c
       -0.14577238 -0.0018894987 -0.21793528 0.014302427
000230 4e 75 ce 3c 42 61 a8 bd b6 af f0 3c b6 2f 66 bd
       0.02520242 -0.082216755 0.02938066 -0.056197844
000240 9b 47 19 bd f3 53 1c 3d ea 16 89 bd 3c 25 16 be
       -0.037421804 0.038165998 -0.06693824 -0.14662641
000250 23 05 10 3c a4 ee eb bd f4 b7 16 be 21 f1 04 be
       0.008790287 -0.115201265 -0.1471861 -0.12982608
000260 50 f6 70 bd 81 0c 26 be 7e 73 92 3d 4f 04 20 bd
       -0.058828652 -0.16215707 0.07150935 -0.03906661
000270 b4 63 e5 bc 93 53 74 3c 4a a4 4c 3c 7b 84 d4 bd
       -0.028001644 0.014912504 0.012490341 -0.10376831
000280 44 31 f9 bd 74 1a 06 be 2c 48 14 3e 85 56 99 bc
       -0.121676 -0.13096029 0.14480656 -0.018718014
000290 23 e8 18 be b8 f5 cd 3c 78 6e 0d 3d a7 19 a6 bd
       -0.14932303 0.025141582 0.03452918 -0.081103615
0002a0 14 f0 18 be b2 5c a5 bc 34 97 3d 3b 44 a0 9e bd
       -0.14935333 -0.020185802 0.0028929235 -0.07745412
0002b0 33 52 13 be 29 d9 43 be 25 07 f6 b8 2f 2b 15 be
       -0.14386825 -0.19125809 -0.00011731525 -0.14567254
0002c0 c8 6b 4e bc da 57 49 bc 34 55 f9 3c fd 81 37 be
       -0.012598939 -0.012289012 0.030436136 -0.1792068
0002d0 68 a0 86 3d 0f 80 ee bd 67 c9 c1 bb cd ba e2 3d
       0.06573564 -0.11645519 -0.0059139016 0.11070786
0002e0 c5 7b 36 3c 8c fd d9 bd 35 58 61 be 7b f2 18 be
       0.011137907 -0.10644063 -0.22006305 -0.14936249
0002f0 e1 60 49 3d c1 86 5f 3d d2 bf 11 3d 6e 7a 41 3d
       0.049164657 0.05457187 0.035583325 0.0472359
000300 c3 71 68 3e 92 a0 f4 3e f2 97 c5 3e 10 e0 8b be
       0.22699647 0.47778755 0.38592488 -0.27319384
000310 f0 74 4b bf fe db 85 be 77 8d 7d 3e 70 ed 9b 3e
       -0.7947531 -0.26144403 0.24760996 0.30454588
000320 ad 69 98 3e bb e1 1a be 04 37 1d 3d e3 46 f3 3e
       0.29768124 -0.15125172 0.038382545 0.4751502
000330 73 74 a8 3e 71 7d 4e 3e 0a ca a2 3e a4 74 c2 3e
       0.32901344 0.2016504 0.3179477 0.37979615
000340 97 7a aa 3e 5f 40 3c bd 81 18 d4 3e 83 78 6e 3c
       0.33296654 -0.045959827 0.41424945 0.014555099
000350 38 52 0e c0 31 5f 62 bd 13 45 92 be f9 91 62 bf
       -2.2237682 -0.055266563 -0.28568324 -0.88503987
000360 68 a6 a5 bf 95 28 3b be ea 80 fb bb b3 d0 b3 be
       -1.2941408 -0.182772 -0.00767528 -0.35120162
000370 ca 9e 42 3d 43 f8 c9 3c 72 fa 99 bc 9a 9a 37 bf
       0.047514714 0.024654513 -0.01879618 -0.7172028
000380 8c 57 db 3c ca 81 ba 3d 19 e0 e8 3e fe 52 0f 3e
       0.026775144 0.091067865 0.45483473 0.13996503
000390 05 e3 49 3d 8a 0d 9e 3e ea a5 4a bd a5 c4 69 3e
       0.04928877 0.30869704 -0.049474634 0.2282892
0003a0 64 99 25 c0 b9 c3 88 bf 50 4d 03 c0 e2 d3 cf 3e
       -2.5874872 -1.068473 -2.0515938 0.4059134
0003b0 0f 51 7c bf 17 b9 75 bf 37 9d 7f bf 12 50 89 bd
       -0.98561186 -0.9598555 -0.99849266 -0.06704725
0003c0 f3 78 81 3e b2 c9 73 3e 72 12 9a 3e 61 e7 92 bd
       0.2528759 0.2380741 0.30092198 -0.07173038
0003d0 3f 2e 6f bd 8a de 19 3e 07 07 21 3e 39 1f 45 3e
       -0.058393713 0.15026298 0.15725337 0.19250192
0003e0 a2 fc 32 be ab 06 3c 3e 8f d1 60 3e e9 c4 5d 3f
       -0.17479184 0.18361919 0.2195494 0.86628586
0003f0 2c 6d 98 3e 01 10 c7 be 80 6d 45 3e fa aa 15 bf
       0.29770792 -0.38879398 0.19280052 -0.58464015

bias f4 [64]
000000 34 9d 9a bd b7 f7 ab bd 48 72 d7 3a 07 55 81 bd
       -0.07549515 -0.08396857 0.0016437257 -0.06315046
000010 9d 4c 99 bd 9f c7 02 3e 23 0f a4 bd bf 97 93 3d
       -0.07485316 0.12771462 -0.080106996 0.07206678
000020 03 21 91 bc e9 8f b0 bd a8 70 dc 3d e8 f6 11 be
       -0.017715937 -0.08621199 0.10763675 -0.14254344
000030 52 f3 60 3d 85 b9 a2 bd 2a a6 e9 bb 12 e2 b1 3d
       0.05491955 -0.07945541 -0.007130404 0.086856976
000040 47 0e 2f be ff 53 2f bc 2c f5 8f 3d ce 96 e1 3d
       -0.1709529 -0.010701179 0.07029185 0.11015092
000050 8a 19 0d 3e 9c f2 0b 3e 4c 99 b9 bd 51 67 56 bd
       0.13779274 0.13666767 -0.09062442 -0.052344624
000060 87 36 29 bd e7 95 d3 bc 25 69 1d bc 68 d7 8b bd
       -0.041311767 -0.025828315 -0.009607588 -0.06828195
000070 15 6f 5b bc 99 94 9f 3c 3e 59 a7 bd 1a a0 9c 3c
       -0.013393183 0.019480037 -0.081713185 0.019119311
000080 d9 93 6e 3c b6 56 f4 3d ee 3b f4 bd e0 9a bf bd
       0.014561617 0.11930601 -0.11925493 -0.09355712
000090 67 67 ec bb 1f dd 4d be e6 90 c8 bd fe 44 4f 3d
       -0.007214475 -0.20103882 -0.09793262 0.050602905
0000a0 52 cc 90 bd d8 2b e6 3e 61 18 19 3e b3 f7 34 bc
       -0.07070221 0.44955325 0.14950706 -0.011045384
0000b0 62 6a 9e bd d9 e7 97 3d 94 21 8e be 3f 31 0c 3c
       -0.07735135 0.07417268 -0.27759993 0.008556663
0000c0 db e0 87 3d be 69 22 3c 78 32 92 be 54 74 3a 3d
       0.06634685 0.009912906 -0.2855413 0.045521095
0000d0 ea 09 47 bd 2c 41 0b 3c f0 9f 0b bd bd d7 32 bd
       -0.04859344 0.008499425 -0.034088075 -0.043662775
0000e0 b7 5b a6 3d 4f 4c b8 bb 24 2b 47 3d 1b 73 81 bc
       0.08122962 -0.005624331 0.048625126 -0.015801957
0000f0 a6 70 a2 3e 49 81 9e bd b3 ff 92 bd 36 a0 75 be
       0.3172657 -0.07739503 -0.07177677 -0.23986897

weight f4 [1, 64]
000000 8b 2a b4 3e a2 d3 a0 bb 2b e2 16 bd e5 2f e9 3e
       0.35188708 -0.004908041 -0.036836784 0.45544353
000010 e8 7a be bb 79 66 24 3f e3 e3 63 bd 46 df 05 bf
       -0.0058129914 0.6421886 -0.05563725 -0.52293813
000020 23 2c 90 be 15 24 9c 3d ee 11 5d 3e dd ba 16 bc
       -0.28158674 0.076240696 0.21588871 -0.009199825
000030 95 94 18 bd 88 9b 41 bd 9a 5a 9e be 59 39 a3 3c
       -0.037251074 -0.047267467 -0.30928499 0.019924806
000040 89 bd ca 3e 4a a9 53 bd a0 f7 df 3e df f5 e8 be
       0.3959773 -0.05167512 0.4374361 -0.45500085
000050 50 bd 9b 3f 80 83 15 be bc a2 49 ba ea fa a7 bf
       1.2167149 -0.14600945 -0.0007691791 -1.3123448
000060 fb e5 3b 3b 9a 4c bc bb c6 8f 3a bc aa af bc bc
       0.0028671015 -0.0057464363 -0.011386817 -0.023032982
000070 25 e4 17 3e 57 d9 9c be 3e c0 9b 3a 6d ba 38 3f
       0.14833124 -0.30634567 0.0011882854 0.72159463
000080 27 f1 4f be 0e 12 83 3f 50 4a 61 bd 1d 85 d4 bd
       -0.20306836 1.0239885 -0.05500251 -0.10376952
000090 75 fc 5a 3e db b7 1c 3f bd f8 92 bc 16 61 91 3c
       0.21385367 0.6121804 -0.017940873 0.01774649
0000a0 07 1c 23 bb 3d 65 44 bf 52 70 3e 3f e5 90 e0 bc
       -0.0024888532 -0.7671698 0.7439014 -0.027412841
0000b0 a0 3f dd 3e e9 87 62 bd bf 88 7a 3e c7 e7 7d bd
       0.43212605 -0.055305395 0.24466227 -0.06198862
0000c0 c5 06 80 be 5d a4 05 40 ab ce ab 3e 0c 48 c4 bd
       -0.25005165 2.088157 0.33556113 -0.09584054
0000d0 77 6d 97 bd 08 e6 18 3f 54 3c 2a 3f 65 bb 0d 3f
       -0.07393926 0.59726 0.66498303 0.55364066
0000e0 23 8b d1 3d b3 9a 29 bd 42 ea 01 bf cc 9f 81 3e
       0.10231616 -0.0414073 -0.50748074 0.25317228
0000f0 ff 5a f8 bf 9f bf 86 bd aa 3f 01 3c 8b ac 52 3f
       -1.940277 -0.065795176 0.007888714 0.8229453
