model_save/critic.pth (torch, 21566 bytes, 5 tensors)

weight f4 [64, 4]
0	0x3fd4fe2a	1.6640065
1	0x3f681659	0.906591
2	0xbe7f173f	-0.24911211
3	0xbdc913c9	-0.09818227
4	0x3e83930b	0.25698122
5	0xbea89438	-0.32925582
6	0xbe54a90f	-0.20767616
7	0xbe4be9de	-0.19913432
8	0xbf5f06ba	-0.8711964
9	0xbdfe0719	-0.124036975
10	0xbe3f7083	-0.18695264
11	0xbda362e2	-0.07977845
12	0xbfbba242	-1.4658892
13	0x3fd67a17	1.6756009
14	0x3ee6b16a	0.4505723
15	0x3dc13cb4	0.09435406
16	0xbf33088d	-0.6993492
17	0x3ede3c8e	0.43405575
18	0x3c1afcd0	0.009459689
19	0x3e5eb00f	0.21746849
20	0xbf84d947	-1.0378808
21	0x3fda4dc1	1.7054979
22	0x3ea90936	0.3301484
23	0x3d9e2407	0.077217154
24	0x3fe375d6	1.7770336
25	0xbe819c28	-0.2531445
26	0xbeb3a10f	-0.35083815
27	0xbe40f16d	-0.18842097
28	0x3d88f668	0.06687623
29	0xc0108268	-2.2579594
30	0xbed8bb55	-0.42330423
31	0xbd73f94e	-0.059563927
32	0xbfa41691	-1.2819387
33	0x3f5119e1	0.81680113
34	0x3ec7befc	0.39012897
35	0x3b3cf2d0	0.002883125
36	0x3f4b5ecd	0.7944153
37	0xbf99b830	-1.2009335
38	0x3ea7f2a9	0.32802323
39	0x3c714adf	0.014727323
40	0xbec58419	-0.38577345
41	0x3f7a8211	0.97854716
42	0xbaacd53a	-0.0013186105
43	0xbdc21e23	-0.094784044
44	0xbf991250	-1.1958714
45	0xbf44e203	-0.76907367
46	0xbec7778a	-0.3895839
47	0xbcccc580	-0.02499652
48	0xc00cdb4f	-2.2008855
49	0xbf839bd3	-1.0281929
50	0xbe93492a	-0.28766757
51	0x3d8db9b8	0.06920189
52	0xbf83cf53	-1.0297645
53	0xbf07955e	-0.5296229
54	0xbeb8307f	-0.359745
55	0xbdda0076	-0.10644619
56	0xbfab93cd	-1.340448
57	0x3fa10f5a	1.258281
58	0x3ea3393b	0.318796
59	0x3d74bbfe	0.059749596
60	0xbf9e14e8	-1.235013
61	0xbf90428e	-1.1270311
62	0x3e95bebc	0.2924708
63	0x3c4db4ee	0.012555344
64	0xbf284cb9	-0.6574207
65	0xbfbaf8d9	-1.4607192
66	0xbe91ddeb	-0.28489622
67	0xbe212460	-0.15736532
68	0xbf83d8a0	-1.0300484
69	0x3f1eb97a	0.62001765
70	0x3f1a61ca	0.60305464
71	0x3dfa0d37	0.12209552
72	0xbfcd4503	-1.6036686
73	0xbf6a8d6a	-0.9162203
74	0xbecb3dd9	-0.39695624
75	0xbe5cf828	-0.21579039
76	0xbfd693ec	-1.6763892
77	0x3fa81dc5	1.3134085
78	0x3f172d66	0.5905365
79	0xbe55bfce	-0.20873949
80	0xbfefb767	-1.8727845
81	0x3fe8728f	1.815996
82	0x3ecf15de	0.4044637
83	0xbd44cfea	-0.048049845
84	0xbf198566	-0.59969175
85	0x3ff0d6f2	1.8815596
86	0x3e9dd93e	0.30829805
87	0x3db04e11	0.0860864
88	0x3dab4a3a	0.08363767
89	0xbe5ad6c9	-0.21370997
90	0xbf433d84	-0.7626574
91	0xbecb0a43	-0.39656267
92	0xbfa18e02	-1.2621462
93	0xbf8e87b2	-1.1135161
94	0xbeeb4555	-0.45951334
95	0xbdb19a45	-0.08672003
96	0xbfbe4add	-1.4866596
97	0x3f870d18	1.0550871
98	0x3ed95e01	0.42454532
99	0x3cad2eb9	0.021140443
100	0xbf1fe19f	-0.62453645
101	0x3fa1f6de	1.2653463
102	0x3e1f7495	0.15571816
103	0xbd8d0315	-0.068853535
104	0xbf66b384	-0.9011767
105	0xbfd8473d	-1.689674
106	0xbeffa7e4	-0.49932778
107	0xbd8cce0c	-0.06875238
108	0xbf1d9e2b	-0.6156947
109	0xbff74fa1	-1.9321176
110	0xbeefb88f	-0.46820495
111	0x3d78d232	0.060747333
112	0x3fa1a02d	1.2627007
113	0xbf28cc77	-0.6593699
114	0xbebe33e6	-0.3714897
115	0xbd6ced16	-0.05784329
116	0xc01cae8c	-2.4481535
117	0x3f84500a	1.0336926
118	0xbf2575fd	-0.6463316
119	0xbe339914	-0.17538863
120	0xbf23739e	-0.6384829
121	0xbeaa916d	-0.33314076
122	0x3ef5de87	0.48021337
123	0x3ee93af2	0.45552784
124	0xbf0c5c14	-0.54828
125	0xbf61ff8f	-0.88280576
126	0xbef5e512	-0.4802633
127	0xbde92cab	-0.11385473
128	0xbf4c91d8	-0.7991004
129	0x3ea314aa	0.31851703
130	0x3e87934e	0.26479572
131	0x3e5ded00	0.2167244
132	0xbedbfdc2	-0.4296704
133	0xbf59c031	-0.85058886
134	0xbf37ca2a	-0.7179285
135	0xbdd9de23	-0.10638072
136	0xbfa21f4d	-1.2665802
137	0xbf9ae64d	-1.2101532
138	0x3e050e1a	0.1299366
139	0x3df0b941	0.117540844
140	0xbf061807	-0.5238041
141	0xbf3e23a9	-0.74273163
142	0xbf3d4df5	-0.7394708
143	0xbdb6d110	-0.08926594
144	0x3fa33940	1.2751846
145	0x3e3762da	0.17908803
146	0x3f1604a7	0.5860085
147	0x3e517c82	0.20457652
148	0xbe80575a	-0.25066644
149	0x3baef289	0.005338971
150	0xbee1b54c	-0.4408363
151	0x3e38e88c	0.1805746
152	0xbf290930	-0.66029644
153	0x3f90d200	1.1314087
154	0xbdd790ff	-0.10525703
155	0x3df1e592	0.11811365
156	0x3e948edb	0.2901524
157	0x3e3568a7	0.17715703
158	0xbed42cb2	-0.4144035
159	0xbe9dbbb1	-0.3080726
160	0xbf059349	-0.52177864
161	0xbf643c88	-0.89154863
162	0x3e989a51	0.29805234
163	0x3e84ade1	0.2591391
164	0xbf4986e1	-0.78721434
165	0x3f9dab07	1.2317818
166	0x3df07fd7	0.117431335
167	0xbd6fb385	-0.058520813
168	0xbf6a0253	-0.91409796
169	0x3f3012b6	0.6877855
170	0x3f0c2f2d	0.54759485
171	0x3ce0900d	0.027412439
172	0xbec86264	-0.39137566
173	0xbf723888	-0.9461751
174	0x3e625743	0.221036
175	0x3e9faff3	0.31188926
176	0xbf7f4a5a	-0.99722826
177	0x3f9f5d6c	1.2450385
178	0x3e7243fc	0.23658746
179	0xbda13dc4	-0.07873109
180	0xbf49a71e	-0.78770626
181	0x3f4d6dee	0.80245864
182	0xbe3cfe75	-0.18456443
183	0xbd4fef88	-0.050765544
184	0xbf264963	-0.6495573
185	0x3fa68831	1.3010312
186	0x3de3ad17	0.11116999
187	0xbdf55541	-0.119791515
188	0xbf9e7920	-1.2380714
189	0x3fe3bc47	1.7791833
190	0x3e2fb38c	0.17158335
191	0x3d890ae6	0.06691532
192	0xbfc7a183	-1.5596164
193	0xbf3e2769	-0.74278885
194	0xbea5d647	-0.32390043
195	0xbe2a2ba4	-0.1661821
196	0xbeb8088a	-0.35944015
197	0x3ed6b252	0.41932923
198	0xbe027740	-0.12740803
199	0xbe980fa5	-0.29699436
200	0xbe94beb2	-0.2905174
201	0x3eb80f04	0.35948956
202	0xbf30a384	-0.68999505
203	0xbd0affa9	-0.033935223
204	0xbf605ada	-0.8763863
205	0xbf6aef51	-0.9177142
206	0xbe1796d8	-0.14803636
207	0xbe0922de	-0.13392207
208	0xbf7a2474	-0.97711873
209	0x3e76056d	0.24025507
210	0x3e96ec61	0.29477218
211	0x3e14af6a	0.1452004
212	0x3e8867a5	0.26641575
213	0x400b8b43	2.1803749
214	0x3ec26fcd	0.37975922
215	0x3e35bf59	0.17748775
216	0x3f1edade	0.62052715
217	0x3fa02e40	1.2514114
218	0x3eac3389	0.33633068
219	0xbbd1789e	-0.0063925525
220	0x3f84f99b	1.0388674
221	0xbfb9db0d	-1.4519974
222	0xbec7ee33	-0.3904892
223	0xbd7c5841	-0.061607603
224	0xbf87ec26	-1.0618942
225	0xbf7700a0	-0.9648533
226	0xbebf6724	-0.37383378
227	0xbd7000ce	-0.058594517
228	0x3e1f76cc	0.15572661
229	0xbe0daf10	-0.13836312
230	0x3f5c643b	0.8609044
231	0x3cad8832	0.021183107
232	0xbfc61061	-1.5473748
233	0x3e3cdb22	0.18442968
234	0x3f3dc726	0.74132
235	0xbdf4a57b	-0.119456254
236	0xbf90c503	-1.1310123
237	0x3f39de94	0.7260525
238	0xbef00958	-0.4688213
239	0xbeb6c93d	-0.35700408
240	0xbd7a2c64	-0.06107749
241	0xbfb78dc1	-1.4340135
242	0xbe78e989	-0.24307837
243	0xbd377a62	-0.044794448
244	0xbf9c75f5	-1.2223498
245	0xbf6343a1	-0.8877507
246	0xbe5cd97e	-0.21567342
247	0xbdb6d2f4	-0.08926955
248	0xbea143fd	-0.31497183
249	0x3f714a14	0.9425366
250	0xbc733cbe	-0.014846025
251	0x3e792c7c	0.24333376
252	0xbf110d50	-0.5666094
253	0x3fa3aac4	1.2786489
254	0x3e8d5f08	0.27611566
255	0x3e074db0	0.13213229

bias f4 [64]
0	0xbf8f8b28	-1.1214342
1	0x3fa845db	1.3146318
2	0x3eb47602	0.35246283
3	0x3d0de057	0.034637775
4	0x3f8d2222	1.1026042
5	0x3ee593d3	0.44839343
6	0x3f7c74e5	0.98615867
7	0xbd57c4f1	-0.052678052
8	0x3f6af81b	0.9178483
9	0xbf691ba9	-0.9105783
10	0x3f8c15f6	1.0944202
11	0x3f63aa1e	0.88931453
12	0x3c30aa1b	0.010782744
13	0x3f7e0ec3	0.99241275
14	0x3f51f625	0.8201621
15	0x3f509829	0.8148218
16	0x3e7f4767	0.24929582
17	0x3eb73dc5	0.35789314
18	0x3f2ca81c	0.67444015
19	0x3ef957c2	0.48699766
20	0xbe0c155d	-0.13680024
21	0x3da84568	0.08216363
22	0xbe5893b5	-0.21150096
23	0x3f63b1ac	0.8894298
24	0x3f5ea13c	0.86964774
25	0x3f41bc98	0.75678396
26	0x3eaef9d0	0.34174967
27	0xbe0e713d	-0.13910384
28	0xbf797849	-0.97449166
29	0xbed2ac18	-0.41146922
30	0xbe5d093f	-0.21585558
31	0xbed06d7e	-0.40708536
32	0x3f7883ff	0.9707641
33	0xbe93babc	-0.28853405
34	0x3edc8610	0.43071032
35	0xbec2c8f3	-0.38043937
36	0xbf1b9146	-0.60768545
37	0x3f2e39ca	0.6805693
38	0x3f430bcd	0.7618988
39	0xbf080775	-0.5313638
40	0x3f92301f	1.1420935
41	0x3f1debcd	0.6168793
42	0x3fab5429	1.3385059
43	0x3f908243	1.1289753
44	0x3f6ece78	0.93283796
45	0x3f335d8d	0.7006462
46	0x3f57bad5	0.8426946
47	0x3f7e305b	0.99292535
48	0x3ebb09c1	0.3653088
49	0x3f82a86e	1.0207651
50	0xbf2d947f	-0.6780471
51	0x3f23b4ff	0.63948053
52	0x3f8971bc	1.0737834
53	0x3e9dc603	0.30815133
54	0xbe21ba5b	-0.15793745
55	0xbf0f2524	-0.5591605
56	0x3f3ba3bb	0.7329671
57	0xbf00130a	-0.5002905
58	0x3e95a7c8	0.2922957
59	0x3f823aec	1.0174232
60	0x3d9bceb6	0.07607786
61	0x3ec7bee4	0.39012825
62	0x3f403065	0.75073844
63	0x3e303369	0.17207111

weight f4 [64, 64]
0	0xbf291722	-0.6605092
1	0x3e9a3509	0.30118588
2	0xbe72d7b2	-0.23715094
3	0x3fc1846e	1.5118539
4	0x3efbd153	0.4918314
5	0xc03d9e13	-2.962773
6	0x3f4da8a5	0.80335456
7	0x3f8e36e4	1.1110501
8	0xbfd5c38d	-1.6700302
9	0x3ecbcb09	0.3980334
10	0x3f39c6e5	0.72569114
11	0xbf386bad	-0.720393
12	0x3fa03e2c	1.2518973
13	0xbc2cf3f5	-0.010556211
14	0xc00bffb6	-2.1874824
15	0x3e6d4975	0.23172553
16	0xbfc2e754	-1.5226846
17	0x3df4ea5a	0.119587615
18	0xbf5d4fa2	-0.86449635
19	0x3fb7df62	1.4365046
20	0xc082ad8c	-4.083685
21	0xc02b0cb2	-2.6726499
22	0x3ed2e10c	0.41187322
23	0xbe87c6c4	-0.26518834
24	0xc00da972	-2.2134671
25	0xbd100049	-0.035156522
26	0xbf04c04a	-0.5185591
27	0xbfb079a4	-1.3787122
28	0xc02ad81e	-2.6694407
29	0x3efc054c	0.4922279
30	0x3e87fbf0	0.265594
31	0x3ee69930	0.45038748
32	0xbf7b27c2	-0.9810754
33	0x3eb1ace4	0.34702218
34	0xbc82a30e	-0.015946891
35	0x3f13bd6c	0.5771091
36	0x3ed6f018	0.41980052
37	0x3e9246f9	0.28569773
38	0x3ef3894e	0.47565693
39	0x3e9a40f1	0.3012767
40	0x3ee05c26	0.43820304
41	0xbe9a2e23	-0.30113325
42	0x3ea24006	0.3168947
43	0x3f1b8434	0.607486
44	0xbd3fb74a	-0.046805657
45	0x3f028c29	0.5099512
46	0x3ec486c8	0.3838408
47	0xbec0ebb9	-0.37679842
48	0x3e8e613f	0.27808568
49	0x3f699e87	0.9125752
50	0x3e53dcdf	0.20689724
51	0xbf338396	-0.7012266
52	0xbf659e02	-0.89694226
53	0xbfc098b3	-1.50466
54	0xbe02d6e0	-0.12777281
55	0xc0602393	-3.5021713
56	0xbecfda43	-0.40596208
57	0x3e9fa6ee	0.31182045
58	0x3f799985	0.9749988
59	0x3ea2001f	0.31640717
60	0xbfaaf226	-1.3355148
61	0xbcc54080	-0.024078608
62	0x3ec107a0	0.3770113
63	0xc017a2c7	-2.3693101
64	0x3f0f7030	0.5603056
65	0x3e811bf7	0.25216648
66	0xbf2df1fc	-0.67947364
67	0x3dbc6d20	0.092005014
68	0x3db16546	0.086618945
69	0xc01dcd81	-2.465668
70	0x3f000d91	0.500207
71	0x3ece7c15	0.40329042
72	0xbfa8a357	-1.3174847
73	0x3dbaf773	0.091292284
74	0x3e222bb5	0.15836985
75	0xc061e032	-3.5293088
76	0x3c0579aa	0.008146683
77	0xbf808bfd	-1.0042721
78	0xc0187600	-2.3822021
79	0xbc805a39	-0.015668022
80	0xc003f2a9	-2.0616858
81	0x3d58e53b	0.052952986
82	0xbf2e2221	-0.68020827
83	0xbf2c8c3c	-0.6740148
84	0x3d8c9825	0.06864957
85	0xbfd9b661	-1.7008783
86	0xbff728b0	-1.9309292
87	0xc07f25d4	-3.9866838
88	0xbf6dc5ac	-0.9287975
89	0xbd92c88c	-0.071671575
90	0xc08a7327	-4.3265567
91	0xc069667c	-3.6468801
92	0x40135e30	2.3026237
93	0xbe2ca5c1	-0.16860105
94	0xbf77061e	-0.9649371
95	0xbf8bd938	-1.0925665
96	0xbe0fa281	-0.14026834
97	0xbfaf6fca	-1.370599
98	0xbf4ef65d	-0.8084467
99	0xbfb1fa18	-1.3904448
100	0x3ef10bd0	0.47079325
101	0xbec9806b	-0.39355788
102	0x3f89d96f	1.076948
103	0xbec064d0	-0.37576914
104	0x3e1427e4	0.14468342
105	0xbf9de941	-1.2336808
106	0x3d58d88c	0.05294089
107	0x3e054f78	0.13018596
108	0x3efa8728	0.4893124
109	0xbf4b2630	-0.79355145
110	0x3dc48a9a	0.09596749
111	0xbf9c2fb0	-1.2202053
112	0xbe9d00b9	-0.30664614
113	0x3e4d53e9	0.2005154
114	0xc0206373	-2.50607
115	0xbff33983	-1.9001926
116	0xbdfe12ce	-0.124059305
117	0x3e92ba55	0.28657785
118	0x3e9d4083	0.3071328
119	0x3f1dc1b0	0.6162367
120	0xc08b1768	-4.346607
121	0x3f005e78	0.5014415
122	0xbf384606	-0.7198185
123	0xbf302783	-0.6881029
124	0x3ef9e510	0.48807573
125	0xbf1bb2f9	-0.60819966
126	0x3e9dc118	0.3081138
127	0xc03a732d	-2.9132798
128	0xbeb9ce8e	-0.362904
129	0x3c860bba	0.016363014
130	0x3ebc4c5e	0.36777014
131	0x3ee888b7	0.45416805
132	0x3c6d1779	0.014470928
133	0xbfd8df17	-1.6943082
134	0xbfb707ca	-1.4299252
135	0x3f516338	0.8179202
136	0xbfa14f0d	-1.2602249
137	0xc035927f	-2.8370664
138	0xbecc98b2	-0.39960247
139	0x3ebd1d5a	0.36936456
140	0x3ea88f48	0.32921815
141	0x3e989384	0.29800045
142	0xbff998f9	-1.9499809
143	0x3f174221	0.5908528
144	0x3eaade09	0.33372524
145	0x3fa1d9eb	1.2644628
146	0x3e8cc9be	0.27497667
147	0x3fd47646	1.6598594
148	0xbfea1cd5	-1.8290049
149	0xc0034a4b	-2.0514095
150	0x3f38ccf4	0.72187734
151	0x3e524bc9	0.20536722
152	0xbfc1e446	-1.5147789
153	0xbfd2595a	-1.6433518
154	0x3ebc5212	0.36781365
155	0x3ec6ca23	0.38826093
156	0xc0199758	-2.3998623
157	0xbf006c14	-0.50164914
158	0x3fc49b83	1.5359958
159	0x3e9333d4	0.2875048
160	0xbe9f6844	-0.31134236
161	0x3eb9ade1	0.36265472
162	0x3f01d5b8	0.50716734
163	0x3f1e50ab	0.6184184
164	0xbe98b793	-0.29827556
165	0xbe3235e5	-0.17403372
166	0xbf69e961	-0.9137173
167	0x3f4c52b6	0.79813707
168	0x3efb0cb0	0.49033117
169	0xbf713aef	-0.9423055
170	0x3fc37905	1.5271307
171	0x3ed021bd	0.4065074
172	0xbf746ef3	-0.95481795
173	0xbf3e7103	-0.7439119
174	0xbf926c3c	-1.143928
175	0xbfc7b5fd	-1.5602413
176	0x3ea6c5c5	0.3257276
177	0x3e9dd49f	0.3082628
178	0x3f152a92	0.5826808
179	0x3ecfd4da	0.4059208
180	0xbeeaf11b	-0.45887074
181	0xbf27c147	-0.6552929
182	0xbeae3437	-0.34024212
183	0xbc6c6c53	-0.014430123
184	0x3e7f7a81	0.24949075
185	0xbf8e5add	-1.1121479
186	0x3fc11c6d	1.50868
187	0xbf37817a	-0.7168194
188	0x3f3c97e1	0.7366925
189	0x3ef35acd	0.47530213
190	0xbf3971b6	-0.72439134
191	0xbfa52d8d	-1.2904526
192	0x3edfdd26	0.4372341
193	0xbe463f41	-0.19360067
194	0x3e2e0719	0.16994895
195	0xbedb4258	-0.42824054
196	0xbda9c9dd	-0.082904555
197	0x3e20e4c5	0.15712269
198	0x3f3cb65e	0.7371577
199	0xbead23a3	-0.3381625
200	0x3e667bb2	0.22508124
201	0x3f7bd7ea	0.98376334
202	0x3de4c7d4	0.11170927
203	0x3e0b40a8	0.13598883
204	0x3e84479c	0.25835884
205	0x3e2b6300	0.16736984
206	0x3ede3e33	0.4340683
207	0x3ec2ed3d	0.38071623
208	0xbdb70192	-0.089358464
209	0x3dc460ce	0.095887765
210	0x3e226e0a	0.15862289
211	0xbed5994b	-0.41718516
212	0x3caa70a7	0.02080567
213	0x3dbc1d58	0.091852844
214	0xbeca037f	-0.39455792
215	0x3da04bb7	0.078269415
216	0x3e762aa5	0.24039705
217	0x3df7fadc	0.121083945
218	0x3dccb087	0.099946074
219	0x3d7b31f9	0.061326955
220	0x3fe7a21f	1.809635
221	0x3ca06804	0.019580849
222	0xbebba89a	-0.3665207
223	0xbe541132	-0.20709684
224	0x3ddce960	0.107867
225	0xbd715111	-0.0589152
226	0x3efed6d5	0.4977328
227	0xbea88409	-0.32913235
228	0x3f48157f	0.781578
229	0x3e22cd5f	0.15898655
230	0x3ec5abc8	0.3860762
231	0xbec42993	-0.3831297
232	0x3ea76f5e	0.32702154
233	0x3ecdbf56	0.4018504
234	0xbe77b3ce	-0.24189684
235	0x3e60fd3a	0.21971598
236	0x3e5f2eda	0.21795216
237	0x3f0962ad	0.5366619
238	0x3e5feabb	0.21866886
239	0x3e5a4d8d	0.21318646
240	0x3e8df045	0.27722374
241	0x3ed7d4b9	0.42154482
242	0xbf077bd4	-0.5292332
243	0x3d6d2a5c	0.057901725
244	0x3e801b34	0.25020754
245	0x3ca12f73	0.019675946
246	0x3d97f669	0.07420046
247	0x3ed375c2	0.4130078
248	0x3df74874	0.12074366
249	0xbf0c9489	-0.54914147
250	0x3e995604	0.29948437
251	0x3ebb3acc	0.36568296
252	0x3e3e3790	0.18575883
253	0x3e33972f	0.1753814
254	0x3cb2fe85	0.02184988
255	0x3dd99110	0.106233716

bias f4 [64]
0	0x3f71e939	0.94496495
1	0x3e8f1fae	0.27953857
2	0x3e237b7e	0.15965077
3	0x3d58e38e	0.052951388
4	0x3d6ef275	0.058336694
5	0xbc8b08ec	-0.016972028
6	0xbd440ff5	-0.04786678
7	0x3f75b353	0.9597675
8	0x3b0e6e86	0.0021733358
9	0xbd17a327	-0.03702083
10	0x3bb9baab	0.0056680045
11	0x3c965886	0.018352758
12	0x3e197fe3	0.14990191
13	0x3dcdeafb	0.100545846
14	0x3dda3713	0.10655036
15	0x3da123e6	0.07868175
16	0x3e5a49c0	0.21317196
17	0xba14f18a	-0.0005681744
18	0x3d160dae	0.03663414
19	0x3eaa4ee1	0.33263305
20	0x3f619679	0.8812023
21	0x3cac4eef	0.021033732
22	0x3d3f4ea7	0.046705868
23	0x3dc1b62c	0.09458575
24	0x3f39bebb	0.72556657
25	0xbdf8a1ec	-0.12140259
26	0xbe0c3418	-0.13691747
27	0xbc4f6d53	-0.012660342
28	0xbdbb7ceb	-0.091546856
29	0x3c7b6b00	0.015345335
30	0x3e2a6fcc	0.1664421
31	0x3d4c10af	0.0498206
32	0xbbf663ef	-0.007519237
33	0x3d98a46b	0.07453235
34	0x3d4f4080	0.05059862
35	0x3e94a661	0.29033187
36	0x3d2c073b	0.041999083
37	0xbd0f14a3	-0.03493179
38	0x3f05d964	0.52284837
39	0xbb0d9d37	-0.00216086
40	0x3d92ba88	0.07164484
41	0x3e1a19ec	0.15048951
42	0x3eced798	0.4039886
43	0xbca9178a	-0.020641107
44	0x3dfa43b1	0.12219942
45	0x3ad816e0	0.001648631
46	0x3d8f8c40	0.070091724
47	0x3c6c70e3	0.014431211
48	0x3eee994c	0.4660133
49	0xbd4866e3	-0.048926245
50	0x3ee1795a	0.44037896
51	0x3b5d1564	0.0033734674
52	0x3e0bfe8d	0.13671322
53	0x3f32be8b	0.69821995
54	0xbd38c8c0	-0.045113325
55	0x3e191ba3	0.14951949
56	0xbd4c9229	-0.049944077
57	0xbd8aca96	-0.067769215
58	0x3e340ce3	0.17583041
59	0x3d415cdd	0.047207702
60	0x3dc5772c	0.09641871
61	0x3e5130a7	0.20428716
62	0x39e15b5b	0.0004298341
63	0x3e2fb2c3	0.17158036

weight f4 [1, 64]
0	0x408ec08c	4.4610043
1	0x3f912e98	1.1342344
2	0x3fb44966	1.40849
3	0xbefaf5c5	-0.49015632
4	0x3d04c03c	0.03240989
5	0xbec8a01b	-0.3918465
6	0xbedbade9	-0.4290612
7	0x407b0c81	3.9226382
8	0xbee58ff7	-0.448364
9	0xbef9333d	-0.48671904
10	0xbf0c370d	-0.547715
11	0x3d798da0	0.06092608
12	0xbed57c34	-0.41696322
13	0xbef13d07	-0.47116873
14	0xbefc816a	-0.49317485
15	0xbeca6eed	-0.39537755
16	0xbf3b7841	-0.7323037
17	0xbed6974a	-0.419123
18	0xbef1f6bd	-0.4725856
19	0x3fb3b8db	1.4040788
20	0x403aeb97	2.9206293
21	0xbf07f443	-0.5310709
22	0xbef243b7	-0.47317287
23	0xbec01db2	-0.37522656
24	0x4044206d	3.064479
25	0x3fffbee8	1.9980135
26	0x3d2ad6ab	0.04170863
27	0xbee6528e	-0.4498486
28	0x3ca46a24	0.020070143
29	0xbecb75c8	-0.39738297
30	0xbf094455	-0.5361989
31	0xbef5c8d4	-0.48004782
32	0xbf306fc8	-0.68920565
33	0x3d211b95	0.039332945
34	0x3d798ef4	0.060927346
35	0x3fb8f3b0	1.4449368
36	0xbeb62ce7	-0.35581133
37	0xbf0d4006	-0.55175817
38	0x404ef6ed	3.2338212
39	0x3d8db98f	0.06920158
40	0xbf006726	-0.5015739
41	0xbecda79f	-0.40166947
42	0x3f8da410	1.1065693
43	0xbedbae01	-0.42906192
44	0xbf0bd995	-0.5462888
45	0x3ffc8a6d	1.9729744
46	0x3dd08ff7	0.10183709
47	0xbec3cbb7	-0.3824136
48	0x40525745	3.2865765
49	0x3da1f4e5	0.07908038
50	0x40112059	2.2675993
51	0xbf04e366	-0.5190948
52	0xbeed81e7	-0.4638817
53	0x403adc57	2.9196985
54	0x3da41811	0.08012403
55	0xbef11b6e	-0.4709124
56	0xbee62876	-0.44952744
57	0x3d99c397	0.07508009
58	0xbefd2247	-0.49440214
59	0xbeef5c6a	-0.46750194
60	0xbedf6e79	-0.4363897
61	0xbf231ad8	-0.63712835
62	0xbee72326	-0.45144004
63	0xbecfa5f2	-0.40556294
